#loc = loc("/localnvme/agent/tjy/ARPO/torchinductor_dongyinpeng/qy/cqy6tyzjvwbniqfuqgyg3mmbolcu2i2oounabq4s5wn2ht4q3bhs.py":18:0)
module {
  tt.func public @triton_(%arg0: !tt.ptr<i64> {tt.divisibility = 16 : i32} loc("/localnvme/agent/tjy/ARPO/torchinductor_dongyinpeng/qy/cqy6tyzjvwbniqfuqgyg3mmbolcu2i2oounabq4s5wn2ht4q3bhs.py":18:0), %arg1: !tt.ptr<i64> {tt.divisibility = 16 : i32} loc("/localnvme/agent/tjy/ARPO/torchinductor_dongyinpeng/qy/cqy6tyzjvwbniqfuqgyg3mmbolcu2i2oounabq4s5wn2ht4q3bhs.py":18:0), %arg2: !tt.ptr<i1> {tt.divisibility = 16 : i32} loc("/localnvme/agent/tjy/ARPO/torchinductor_dongyinpeng/qy/cqy6tyzjvwbniqfuqgyg3mmbolcu2i2oounabq4s5wn2ht4q3bhs.py":18:0), %arg3: i32 loc("/localnvme/agent/tjy/ARPO/torchinductor_dongyinpeng/qy/cqy6tyzjvwbniqfuqgyg3mmbolcu2i2oounabq4s5wn2ht4q3bhs.py":18:0), %arg4: i32 loc("/localnvme/agent/tjy/ARPO/torchinductor_dongyinpeng/qy/cqy6tyzjvwbniqfuqgyg3mmbolcu2i2oounabq4s5wn2ht4q3bhs.py":18:0), %arg5: i32 loc("/localnvme/agent/tjy/ARPO/torchinductor_dongyinpeng/qy/cqy6tyzjvwbniqfuqgyg3mmbolcu2i2oounabq4s5wn2ht4q3bhs.py":18:0), %arg6: i32 loc("/localnvme/agent/tjy/ARPO/torchinductor_dongyinpeng/qy/cqy6tyzjvwbniqfuqgyg3mmbolcu2i2oounabq4s5wn2ht4q3bhs.py":18:0), %arg7: i32 loc("/localnvme/agent/tjy/ARPO/torchinductor_dongyinpeng/qy/cqy6tyzjvwbniqfuqgyg3mmbolcu2i2oounabq4s5wn2ht4q3bhs.py":18:0), %arg8: i32 loc("/localnvme/agent/tjy/ARPO/torchinductor_dongyinpeng/qy/cqy6tyzjvwbniqfuqgyg3mmbolcu2i2oounabq4s5wn2ht4q3bhs.py":18:0)) attributes {noinline = false} {
    %cst = arith.constant dense<0> : tensor<1024xi32> loc(#loc1)
    %c1024_i32 = arith.constant 1024 : i32 loc(#loc1)
    %0 = tt.get_program_id x : i32 loc(#loc2)
    %1 = arith.muli %0, %c1024_i32 : i32 loc(#loc3)
    %2 = tt.make_range {end = 1024 : i32, start = 0 : i32} : tensor<1024xi32> loc(#loc4)
    %3 = tt.splat %1 : i32 -> tensor<1024xi32> loc(#loc5)
    %4 = arith.addi %3, %2 : tensor<1024xi32> loc(#loc5)
    %5 = tt.splat %arg8 : i32 -> tensor<1024xi32> loc(#loc6)
    %6 = arith.cmpi slt, %4, %5 : tensor<1024xi32> loc(#loc6)
    %7 = tt.splat %arg0 : !tt.ptr<i64> -> tensor<1024x!tt.ptr<i64>> loc(#loc7)
    %8 = tt.addptr %7, %4 : tensor<1024x!tt.ptr<i64>>, tensor<1024xi32> loc(#loc7)
    %9 = tt.load %8, %6 : tensor<1024x!tt.ptr<i64>> loc(#loc8)
    %10 = arith.extsi %arg3 : i32 to i64 loc(#loc9)
    %11 = tt.splat %10 : i64 -> tensor<1024xi64> loc(#loc9)
    %12 = arith.cmpi sge, %9, %11 : tensor<1024xi64> loc(#loc9)
    %13 = arith.extsi %arg4 : i32 to i64 loc(#loc10)
    %14 = tt.splat %13 : i64 -> tensor<1024xi64> loc(#loc10)
    %15 = arith.cmpi slt, %9, %14 : tensor<1024xi64> loc(#loc10)
    %16 = arith.andi %12, %15 : tensor<1024xi1> loc(#loc11)
    %17 = arith.extsi %arg5 : i32 to i64 loc(#loc12)
    %18 = tt.splat %17 : i64 -> tensor<1024xi64> loc(#loc12)
    %19 = arith.cmpi sge, %9, %18 : tensor<1024xi64> loc(#loc12)
    %20 = arith.extsi %arg6 : i32 to i64 loc(#loc13)
    %21 = tt.splat %20 : i64 -> tensor<1024xi64> loc(#loc13)
    %22 = arith.cmpi slt, %9, %21 : tensor<1024xi64> loc(#loc13)
    %23 = arith.andi %19, %22 : tensor<1024xi1> loc(#loc14)
    %24 = arith.ori %16, %23 : tensor<1024xi1> loc(#loc15)
    %25 = arith.extui %24 : tensor<1024xi1> to tensor<1024xi64> loc(#loc16)
    %26 = arith.extui %16 : tensor<1024xi1> to tensor<1024xi64> loc(#loc17)
    %27 = arith.muli %26, %11 : tensor<1024xi64> loc(#loc18)
    %28 = arith.extui %23 : tensor<1024xi1> to tensor<1024xi64> loc(#loc19)
    %29 = arith.addi %arg3, %arg5 : i32 loc(#loc20)
    %30 = arith.subi %29, %arg4 : i32 loc(#loc21)
    %31 = arith.subi %30, %arg7 : i32 loc(#loc22)
    %32 = arith.extsi %31 : i32 to i64 loc(#loc23)
    %33 = tt.splat %32 : i64 -> tensor<1024xi64> loc(#loc23)
    %34 = arith.muli %28, %33 : tensor<1024xi64> loc(#loc23)
    %35 = arith.addi %27, %34 : tensor<1024xi64> loc(#loc24)
    %36 = arith.subi %9, %35 : tensor<1024xi64> loc(#loc25)
    %37 = arith.muli %25, %36 : tensor<1024xi64> loc(#loc26)
    %38 = arith.extui %24 : tensor<1024xi1> to tensor<1024xi32> loc(#loc27)
    %39 = arith.cmpi eq, %38, %cst : tensor<1024xi32> loc(#loc27)
    %40 = tt.splat %arg1 : !tt.ptr<i64> -> tensor<1024x!tt.ptr<i64>> loc(#loc28)
    %41 = tt.addptr %40, %4 : tensor<1024x!tt.ptr<i64>>, tensor<1024xi32> loc(#loc28)
    tt.store %41, %37, %6 : tensor<1024x!tt.ptr<i64>> loc(#loc29)
    %42 = tt.splat %arg2 : !tt.ptr<i1> -> tensor<1024x!tt.ptr<i1>> loc(#loc30)
    %43 = tt.addptr %42, %4 : tensor<1024x!tt.ptr<i1>>, tensor<1024xi32> loc(#loc30)
    %44 = tt.bitcast %43 : tensor<1024x!tt.ptr<i1>> -> tensor<1024x!tt.ptr<i8>> loc(#loc31)
    %45 = arith.extui %39 : tensor<1024xi1> to tensor<1024xi8> loc(#loc31)
    tt.store %44, %45, %6 : tensor<1024x!tt.ptr<i8>> loc(#loc31)
    tt.return loc(#loc32)
  } loc(#loc)
} loc(#loc)
#loc1 = loc(unknown)
#loc2 = loc("/localnvme/agent/tjy/ARPO/torchinductor_dongyinpeng/qy/cqy6tyzjvwbniqfuqgyg3mmbolcu2i2oounabq4s5wn2ht4q3bhs.py":19:28)
#loc3 = loc("/localnvme/agent/tjy/ARPO/torchinductor_dongyinpeng/qy/cqy6tyzjvwbniqfuqgyg3mmbolcu2i2oounabq4s5wn2ht4q3bhs.py":19:33)
#loc4 = loc("/localnvme/agent/tjy/ARPO/torchinductor_dongyinpeng/qy/cqy6tyzjvwbniqfuqgyg3mmbolcu2i2oounabq4s5wn2ht4q3bhs.py":20:36)
#loc5 = loc("/localnvme/agent/tjy/ARPO/torchinductor_dongyinpeng/qy/cqy6tyzjvwbniqfuqgyg3mmbolcu2i2oounabq4s5wn2ht4q3bhs.py":20:23)
#loc6 = loc("/localnvme/agent/tjy/ARPO/torchinductor_dongyinpeng/qy/cqy6tyzjvwbniqfuqgyg3mmbolcu2i2oounabq4s5wn2ht4q3bhs.py":21:21)
#loc7 = loc("/localnvme/agent/tjy/ARPO/torchinductor_dongyinpeng/qy/cqy6tyzjvwbniqfuqgyg3mmbolcu2i2oounabq4s5wn2ht4q3bhs.py":23:30)
#loc8 = loc("/localnvme/agent/tjy/ARPO/torchinductor_dongyinpeng/qy/cqy6tyzjvwbniqfuqgyg3mmbolcu2i2oounabq4s5wn2ht4q3bhs.py":23:35)
#loc9 = loc("/localnvme/agent/tjy/ARPO/torchinductor_dongyinpeng/qy/cqy6tyzjvwbniqfuqgyg3mmbolcu2i2oounabq4s5wn2ht4q3bhs.py":25:19)
#loc10 = loc("/localnvme/agent/tjy/ARPO/torchinductor_dongyinpeng/qy/cqy6tyzjvwbniqfuqgyg3mmbolcu2i2oounabq4s5wn2ht4q3bhs.py":27:18)
#loc11 = loc("/localnvme/agent/tjy/ARPO/torchinductor_dongyinpeng/qy/cqy6tyzjvwbniqfuqgyg3mmbolcu2i2oounabq4s5wn2ht4q3bhs.py":28:18)
#loc12 = loc("/localnvme/agent/tjy/ARPO/torchinductor_dongyinpeng/qy/cqy6tyzjvwbniqfuqgyg3mmbolcu2i2oounabq4s5wn2ht4q3bhs.py":30:19)
#loc13 = loc("/localnvme/agent/tjy/ARPO/torchinductor_dongyinpeng/qy/cqy6tyzjvwbniqfuqgyg3mmbolcu2i2oounabq4s5wn2ht4q3bhs.py":32:18)
#loc14 = loc("/localnvme/agent/tjy/ARPO/torchinductor_dongyinpeng/qy/cqy6tyzjvwbniqfuqgyg3mmbolcu2i2oounabq4s5wn2ht4q3bhs.py":33:19)
#loc15 = loc("/localnvme/agent/tjy/ARPO/torchinductor_dongyinpeng/qy/cqy6tyzjvwbniqfuqgyg3mmbolcu2i2oounabq4s5wn2ht4q3bhs.py":34:19)
#loc16 = loc("/localnvme/agent/tjy/ARPO/torchinductor_dongyinpeng/qy/cqy6tyzjvwbniqfuqgyg3mmbolcu2i2oounabq4s5wn2ht4q3bhs.py":35:21)
#loc17 = loc("/localnvme/agent/tjy/ARPO/torchinductor_dongyinpeng/qy/cqy6tyzjvwbniqfuqgyg3mmbolcu2i2oounabq4s5wn2ht4q3bhs.py":36:20)
#loc18 = loc("/localnvme/agent/tjy/ARPO/torchinductor_dongyinpeng/qy/cqy6tyzjvwbniqfuqgyg3mmbolcu2i2oounabq4s5wn2ht4q3bhs.py":37:20)
#loc19 = loc("/localnvme/agent/tjy/ARPO/torchinductor_dongyinpeng/qy/cqy6tyzjvwbniqfuqgyg3mmbolcu2i2oounabq4s5wn2ht4q3bhs.py":38:21)
#loc20 = loc("/localnvme/agent/tjy/ARPO/torchinductor_dongyinpeng/qy/cqy6tyzjvwbniqfuqgyg3mmbolcu2i2oounabq4s5wn2ht4q3bhs.py":39:18)
#loc21 = loc("/localnvme/agent/tjy/ARPO/torchinductor_dongyinpeng/qy/cqy6tyzjvwbniqfuqgyg3mmbolcu2i2oounabq4s5wn2ht4q3bhs.py":39:25)
#loc22 = loc("/localnvme/agent/tjy/ARPO/torchinductor_dongyinpeng/qy/cqy6tyzjvwbniqfuqgyg3mmbolcu2i2oounabq4s5wn2ht4q3bhs.py":39:38)
#loc23 = loc("/localnvme/agent/tjy/ARPO/torchinductor_dongyinpeng/qy/cqy6tyzjvwbniqfuqgyg3mmbolcu2i2oounabq4s5wn2ht4q3bhs.py":40:20)
#loc24 = loc("/localnvme/agent/tjy/ARPO/torchinductor_dongyinpeng/qy/cqy6tyzjvwbniqfuqgyg3mmbolcu2i2oounabq4s5wn2ht4q3bhs.py":41:20)
#loc25 = loc("/localnvme/agent/tjy/ARPO/torchinductor_dongyinpeng/qy/cqy6tyzjvwbniqfuqgyg3mmbolcu2i2oounabq4s5wn2ht4q3bhs.py":42:19)
#loc26 = loc("/localnvme/agent/tjy/ARPO/torchinductor_dongyinpeng/qy/cqy6tyzjvwbniqfuqgyg3mmbolcu2i2oounabq4s5wn2ht4q3bhs.py":43:20)
#loc27 = loc("/localnvme/agent/tjy/ARPO/torchinductor_dongyinpeng/qy/cqy6tyzjvwbniqfuqgyg3mmbolcu2i2oounabq4s5wn2ht4q3bhs.py":44:21)
#loc28 = loc("/localnvme/agent/tjy/ARPO/torchinductor_dongyinpeng/qy/cqy6tyzjvwbniqfuqgyg3mmbolcu2i2oounabq4s5wn2ht4q3bhs.py":45:25)
#loc29 = loc("/localnvme/agent/tjy/ARPO/torchinductor_dongyinpeng/qy/cqy6tyzjvwbniqfuqgyg3mmbolcu2i2oounabq4s5wn2ht4q3bhs.py":45:37)
#loc30 = loc("/localnvme/agent/tjy/ARPO/torchinductor_dongyinpeng/qy/cqy6tyzjvwbniqfuqgyg3mmbolcu2i2oounabq4s5wn2ht4q3bhs.py":46:25)
#loc31 = loc("/localnvme/agent/tjy/ARPO/torchinductor_dongyinpeng/qy/cqy6tyzjvwbniqfuqgyg3mmbolcu2i2oounabq4s5wn2ht4q3bhs.py":46:37)
#loc32 = loc("/localnvme/agent/tjy/ARPO/torchinductor_dongyinpeng/qy/cqy6tyzjvwbniqfuqgyg3mmbolcu2i2oounabq4s5wn2ht4q3bhs.py":46:4)
